Final/moe_model_final.pth (torch, 2925 bytes, 4 tensors)

gating.0.weight f4 [8, 4]
1.2525553 -1.7116833 0.6149224 -1.683331 -0.34689575 2.9850817 -1.2601577 -0.18574403
0.032176286 -0.12041387 -1.649957 2.822361 0.59534425 2.9667716 -1.1588018 0.62636197
0.20260824 1.6638547 1.9384606 -1.0445478 -1.1668974 -0.9105637 1.1156226 -0.76694566
3.7832425 -0.20058091 -0.6687467 0.6640959 3.2934191 -0.5436208 -3.0766926 1.1719357
00000000: bb53 a03f 7018 dbbf 8e6b 1d3f 6477 d7bf
00000010: 529c b1be 940b 3f40 d94c a1bf af33 3ebe
00000020: 48cb 033d 8c9b f6bd ca31 d3bf 90a1 3440
00000030: 7b68 183f 96df 3d40 9e53 94bf 4259 203f
00000040: 8978 4f3e 31f9 d43f 7a1f f83f beb3 85bf
00000050: e55c 95bf b41a 69bf b9cc 8e3f 8d56 44bf
00000060: a520 7240 1565 4dbe fc32 2bbf 3002 2a3f
00000070: 61c7 5240 bc2a 0bbf 88e8 44c0 fd01 963f

gating.0.bias f4 [8]
1.4626013 0.052063417 -0.12251481 -2.3247197 0.78904665 1.4761341 -1.1116309 -0.52533364
00000000: 8536 bb3f 7340 553d 0be9 fabd 35c8 14c0
00000010: f6fe 493f f6f1 bc3f ec49 8ebf 447c 06bf

gating.2.weight f4 [4, 8]
-2.732455 -5.4379764 0.4040684 7.2571373 1.3946271 -2.294513 -2.3568318 4.9351854
2.029725 0.9631393 2.2035234 2.8404067 -0.8828052 -0.9875084 1.2231983 -5.784343
-0.5788378 0.25856668 1.8924121 -2.3653352 1.0666486 0.69708097 -1.9053245 4.1886306
-2.3224242 -0.22390918 -3.7667065 -8.250745 -0.41910493 3.3131728 2.5124302 1.8829343
00000000: 8be0 2ec0 e703 aec0 0ee2 ce3e 783a e840
00000010: 2483 b23f 4dd9 12c0 55d6 16c0 0aed 9d40
00000020: 04e7 0140 4c90 763f 8706 0d40 39c9 3540
00000030: 86ff 61bf 5acd 7cbf c391 9c3f 5619 b9c0
00000040: b72e 14bf da62 843e 8f3a f23f a761 17c0
00000050: f187 883f e673 323f ace1 f3bf 4309 8640
00000060: 99a2 14c0 7348 65be b811 71c0 0d03 04c1
00000070: ec94 d6be 060b 5440 a8cb 2040 fe03 f13f

gating.2.bias f4 [4]
4.0840755 -0.05747615 -1.6486382 0.7212881
00000000: bfb0 8240 1d6c 6bbd 9406 d3bf 56a6 383f
